…
Parsing section maxpool_3
Parsing section convolutional_4
conv2d bn leaky (3, 3, 128, 256)
Parsing section maxpool_4
Parsing section convolutional_5
conv2d bn leaky (3, 3, 256, 512)
Parsing section maxpool_5
Parsing section convolutional_6
conv2d bn leaky (3, 3, 512, 1024)
Parsing section convolutional_7
conv2d    leaky (1, 1, 1024, 1000)
Parsing section avgpool_0
Parsing section softmax_0
_________________________________________________________________
Layer (type)                 Output Shape              Param #   
=================================================================
input_1 (InputLayer)         (None, 256, 256, 3)       0         
_________________________________________________________________
conv2d_1 (Conv2D)            (None, 256, 256, 16)      432       
_________________________________________________________________
batch_normalization_1 (Batch (None, 256, 256, 16)      64        
_________________________________________________________________
leaky_re_lu_1 (LeakyReLU)    (None, 256, 256, 16)      0         
_________________________________________________________________
max_pooling2d_1 (MaxPooling2 (None, 128, 128, 16)      0         
_________________________________________________________________
conv2d_2 (Conv2D)            (None, 128, 128, 32)      4608      
_________________________________________________________________
batch_normalization_2 (Batch (None, 128, 128, 32)      128       
_________________________________________________________________
leaky_re_lu_2 (LeakyReLU)    (None, 128, 128, 32)      0         
_________________________________________________________________
max_pooling2d_2 (MaxPooling2 (None, 64, 64, 32)        0         
_________________________________________________________________
conv2d_3 (Conv2D)            (None, 64, 64, 64)        18432     
_________________________________________________________________
batch_normalization_3 (Batch (None, 64, 64, 64)        256       
_________________________________________________________________
leaky_re_lu_3 (LeakyReLU)    (None, 64, 64, 64)        0         
_________________________________________________________________
max_pooling2d_3 (MaxPooling2 (None, 32, 32, 64)        0         
_________________________________________________________________
conv2d_4 (Conv2D)            (None, 32, 32, 128)       73728     
_________________________________________________________________
batch_normalization_4 (Batch (None, 32, 32, 128)       512       
_________________________________________________________________
leaky_re_lu_4 (LeakyReLU)    (None, 32, 32, 128)       0         
_________________________________________________________________
max_pooling2d_4 (MaxPooling2 (None, 16, 16, 128)       0         
_________________________________________________________________
conv2d_5 (Conv2D)            (None, 16, 16, 256)       294912    
_________________________________________________________________
batch_normalization_5 (Batch (None, 16, 16, 256)       1024      
_________________________________________________________________
leaky_re_lu_5 (LeakyReLU)    (None, 16, 16, 256)       0         
_________________________________________________________________
max_pooling2d_5 (MaxPooling2 (None, 8, 8, 256)         0         
_________________________________________________________________
conv2d_6 (Conv2D)            (None, 8, 8, 512)         1179648   
_________________________________________________________________
batch_normalization_6 (Batch (None, 8, 8, 512)         2048      
_________________________________________________________________
leaky_re_lu_6 (LeakyReLU)    (None, 8, 8, 512)         0         
_________________________________________________________________
max_pooling2d_6 (MaxPooling2 (None, 4, 4, 512)         0         
_________________________________________________________________
conv2d_7 (Conv2D)            (None, 4, 4, 1024)        4718592   
_________________________________________________________________
batch_normalization_7 (Batch (None, 4, 4, 1024)        4096      
_________________________________________________________________
leaky_re_lu_7 (LeakyReLU)    (None, 4, 4, 1024)        0         
_________________________________________________________________
conv2d_8 (Conv2D)            (None, 4, 4, 1000)        1025000   
_________________________________________________________________
leaky_re_lu_8 (LeakyReLU)    (None, 4, 4, 1000)        0         
_________________________________________________________________
global_average_pooling2d_1 ( (None, 1000)              0         
=================================================================
Total params: 7,323,480
Trainable params: 7,319,416
Non-trainable params: 4,064
_________________________________________________________________
None
Saved Keras model to darknet.h5
Read 7323480 of 7323480.0 from Darknet weights.
